…
7', '42003', '26125', '39049', '27053'], 'max_length': 7, 'mini_dataset': False}, 'cpc_model': {'k_size': 1, 'emb_dim': 7, 'ar_type': 'rnn', 'ar_dim': 60, 'enc_type': 'cnn', 'enc_dim': 60}}
2022-07-30 23:28:18,265 - ### Logging with comet_ml ###
2022-07-30 23:28:18,265 - ===> starting new experiment
2022-07-30 23:28:19,867 - ===> use_cuda is True
2022-07-30 23:28:28,459 - ===> loading train and validation dataset
2022-07-30 23:28:28,470 - Loading in dataset from data
2022-07-30 23:28:36,898 - ### Model summary below ###
 CPCv1(
  (encoder): Conv_Encoder(
    (conv_blocks): Sequential(
      (0): Conv1d(7, 60, kernel_size=(1,), stride=(1,))
      (1): ReLU()
    )
  )
  (gru): RNN(60, 60, batch_first=True)
  (Wk): ModuleDict(
    (06037): ModuleList(
      (0): Linear(in_features=60, out_features=60, bias=True)
    )
    (17031): ModuleList(
      (0): Linear(in_features=60, out_features=60, bias=True)
    )
    (48201): ModuleList(
      (0): Linear(in_features=60, out_features=60, bias=True)
    )
    (04013): ModuleList(
      (0): Linear(in_features=60, out_features=60, bias=True)
    )
    (06073): ModuleList(
      (0): Linear(in_features=60, out_features=60, bias=True)
    )
    (06059): ModuleList(
      (0): Linear(in_features=60, out_features=60, bias=True)
    )
    (12086): ModuleList(
      (0): Linear(in_features=60, out_features=60, bias=True)
    )
    (48113): ModuleList(
      (0): Linear(in_features=60, out_features=60, bias=True)
    )
    (06065): ModuleList(
      (0): Linear(in_features=60, out_features=60, bias=True)
    )
    (06071): ModuleList(
      (0): Linear(in_features=60, out_features=60, bias=True)
    )
    (32003): ModuleList(
      (0): Linear(in_features=60, out_features=60, bias=True)
    )
    (53033): ModuleList(
      (0): Linear(in_features=60, out_features=60, bias=True)
    )
    (48439): ModuleList(
      (0): Linear(in_features=60, out_features=60, bias=True)
    )
    (26163): ModuleList(
      (0): Linear(in_features=60, out_features=60, bias=True)
    )
    (06085): ModuleList(
      (0): Linear(in_features=60, out_features=60, bias=True)
    )
    (12011): ModuleList(
      (0): Linear(in_features=60, out_features=60, bias=True)
    )
    (48029): ModuleList(
      (0): Linear(in_features=60, out_features=60, bias=True)
    )
    (42101): ModuleList(
      (0): Linear(in_features=60, out_features=60, bias=True)
    )
    (06001): ModuleList(
      (0): Linear(in_features=60, out_features=60, bias=True)
    )
    (25017): ModuleList(
      (0): Linear(in_features=60, out_features=60, bias=True)
    )
    (36103): ModuleList(
      (0): Linear(in_features=60, out_features=60, bias=True)
    )
    (06067): ModuleList(
      (0): Linear(in_features=60, out_features=60, bias=True)
    )
    (36059): ModuleList(
      (0): Linear(in_features=60, out_features=60, bias=True)
    )
    (12099): ModuleList(
      (0): Linear(in_features=60, out_features=60, bias=True)
    )
    (39035): ModuleList(
      (0): Linear(in_features=60, out_features=60, bias=True)
    )
    (12057): ModuleList(
      (0): Linear(in_features=60, out_features=60, bias=True)
    )
    (42003): ModuleList(
      (0): Linear(in_features=60, out_features=60, bias=True)
    )
    (26125): ModuleList(
      (0): Linear(in_features=60, out_features=60, bias=True)
    )
    (39049): ModuleList(
      (0): Linear(in_features=60, out_features=60, bias=True)
    )
    (27053): ModuleList(
      (0): Linear(in_features=60, out_features=60, bias=True)
    )
  )
)
2022-07-30 23:28:36,898 - ===> Model total parameter: 117600

2022-07-30 23:28:36,899 - ### Training begins at epoch 1 and step 0 ###
2022-07-30 23:28:37,474 - Train Epoch: 1 [0/640 (0%)]	Accuracy: 0.9062	Loss: 7508607.500000
2022-07-30 23:28:49,411 - ===> Training set: Average loss: 3234106.7188	Accuracy: 1.0469
2022-07-30 23:28:49,419 - Starting Validation
…
