…
163', '06085', '12011', '48029', '42101', '06001', '25017', '36103', '06067', '36059', '12099', '39035', '12057', '42003', '26125', '39049', '27053'], 'max_length': 7, 'mini_dataset': False}, 'cpc_model': {'k_size': 1, 'emb_dim': 7, 'ar_type': 'gru', 'ar_dim': 60, 'enc_type': 'cnn', 'enc_dim': 60}}
2022-09-03 02:07:15,508 - ===> use_cuda is False
2022-09-03 02:07:18,396 - ===> loading train and validation dataset
2022-09-03 02:07:18,396 - Loading in dataset from data
2022-09-03 02:07:23,988 - ### Model summary below ###
 CPCv1(
  (encoder): Conv_Encoder(
    (conv_blocks): Sequential(
      (0): Conv1d(7, 60, kernel_size=(1,), stride=(1,))
      (1): ReLU()
    )
  )
  (gru): GRU(60, 60, batch_first=True)
  (Wk): ModuleDict(
    (06037): ModuleList(
      (0): Linear(in_features=60, out_features=60, bias=True)
    )
    (17031): ModuleList(
      (0): Linear(in_features=60, out_features=60, bias=True)
    )
    (48201): ModuleList(
      (0): Linear(in_features=60, out_features=60, bias=True)
    )
    (04013): ModuleList(
      (0): Linear(in_features=60, out_features=60, bias=True)
    )
    (06073): ModuleList(
      (0): Linear(in_features=60, out_features=60, bias=True)
    )
    (06059): ModuleList(
      (0): Linear(in_features=60, out_features=60, bias=True)
    )
    (12086): ModuleList(
      (0): Linear(in_features=60, out_features=60, bias=True)
    )
    (48113): ModuleList(
      (0): Linear(in_features=60, out_features=60, bias=True)
    )
    (06065): ModuleList(
      (0): Linear(in_features=60, out_features=60, bias=True)
    )
    (06071): ModuleList(
      (0): Linear(in_features=60, out_features=60, bias=True)
    )
    (32003): ModuleList(
      (0): Linear(in_features=60, out_features=60, bias=True)
    )
    (53033): ModuleList(
      (0): Linear(in_features=60, out_features=60, bias=True)
    )
    (48439): ModuleList(
      (0): Linear(in_features=60, out_features=60, bias=True)
    )
    (26163): ModuleList(
      (0): Linear(in_features=60, out_features=60, bias=True)
    )
    (06085): ModuleList(
      (0): Linear(in_features=60, out_features=60, bias=True)
    )
    (12011): ModuleList(
      (0): Linear(in_features=60, out_features=60, bias=True)
    )
    (48029): ModuleList(
      (0): Linear(in_features=60, out_features=60, bias=True)
    )
    (42101): ModuleList(
      (0): Linear(in_features=60, out_features=60, bias=True)
    )
    (06001): ModuleList(
      (0): Linear(in_features=60, out_features=60, bias=True)
    )
    (25017): ModuleList(
      (0): Linear(in_features=60, out_features=60, bias=True)
    )
    (36103): ModuleList(
      (0): Linear(in_features=60, out_features=60, bias=True)
    )
    (06067): ModuleList(
      (0): Linear(in_features=60, out_features=60, bias=True)
    )
    (36059): ModuleList(
      (0): Linear(in_features=60, out_features=60, bias=True)
    )
    (12099): ModuleList(
      (0): Linear(in_features=60, out_features=60, bias=True)
    )
    (39035): ModuleList(
      (0): Linear(in_features=60, out_features=60, bias=True)
    )
    (12057): ModuleList(
      (0): Linear(in_features=60, out_features=60, bias=True)
    )
    (42003): ModuleList(
      (0): Linear(in_features=60, out_features=60, bias=True)
    )
    (26125): ModuleList(
      (0): Linear(in_features=60, out_features=60, bias=True)
    )
    (39049): ModuleList(
      (0): Linear(in_features=60, out_features=60, bias=True)
    )
    (27053): ModuleList(
      (0): Linear(in_features=60, out_features=60, bias=True)
    )
  )
)
2022-09-03 02:07:23,989 - ===> Model total parameter: 132240

2022-09-03 02:07:23,989 - ### Training begins at epoch 1 and step 0 ###
2022-09-03 02:07:27,996 - Train Epoch: 1 [0/608 (0%)]	Accuracy: 0.7812	Loss: 48966.343750
2022-09-03 02:07:39,297 - Train Epoch: 1 [128/608 (21%)]	Accuracy: 1.3750	Loss: 27895.738281
2022-09-03 02:07:50,129 - Train Epoch: 1 [256/608 (42%)]	Accuracy: 0.9688	Loss: 18896.279297
…
